Part 1 - Deep Q-Learning/Module 1 - Self Driving Car/last_brain.pth (torch_old, 25623 bytes, 18 tensors)

fc1.weight f4 [50, 5]
0	0xbecedb2e	-0.40401596
1	0xbe0825a6	-0.13295612
2	0x3f6ee518	0.9331832
3	0xbd06c659	-0.032904003
4	0xbe29e239	-0.16590203
5	0xbee6dc20	-0.45089817
6	0xbea63d39	-0.32468584
7	0xbb9afc11	-0.0047297557
8	0xbebab460	-0.3646574
9	0xbe1c21db	-0.1524729
10	0x3f123855	0.57117206
11	0xbf5428f3	-0.82874984
12	0x3eb4878c	0.35259664
13	0xbda82e48	-0.082119524
14	0x3f2792ac	0.6545818
15	0xbe33ebe2	-0.17570451
16	0x3d603ea2	0.05474723
17	0xbeb8c516	-0.36087865
18	0x3f1e7dba	0.61910594
19	0xbf258cf8	-0.64668226
20	0x3f27c558	0.655355
21	0x3ebb6608	0.3660128
22	0x3e2c1b75	0.16807349
23	0x3e11239b	0.14173739
24	0xbd885aa7	-0.066579156
25	0x3e57c13a	0.21069804
26	0x3f39749b	0.7244355
27	0x3d823e4b	0.06359538
28	0xbf3e12da	-0.74247515
29	0x3f1138d2	0.56727326
30	0x3e363f5f	0.17797612
31	0xbdefa595	-0.11701504
32	0x3e85d31d	0.2613763
33	0x3f18a6df	0.59629625
34	0xbefc5ae6	-0.492881
35	0xc07e0d60	-3.9695663
36	0xbe989e99	-0.298085
37	0xbeda67a9	-0.4265721
38	0x3e0f8c7e	0.14018437
39	0x3e83f086	0.25769442
40	0xbf0320ce	-0.5122193
41	0xbe3e0de7	-0.18559991
42	0x3e227928	0.1586653
43	0xbeb16682	-0.3464852
44	0xbe83c5af	-0.25736758
45	0x3e870150	0.2636819
46	0xc02e48d3	-2.7231948
47	0x3e073590	0.13204026
48	0xbde65cc7	-0.112481646
49	0x3f172b48	0.59050417
50	0x3f4d3823	0.8016378
51	0xbe9f66ee	-0.31133217
52	0x3efa5fe1	0.48901275
53	0xbe323c96	-0.17405924
54	0xbd07b055	-0.033127148
55	0x3d4dab22	0.050212033
56	0x3f7662ff	0.96244806
57	0x3e74c91c	0.23904842
58	0xbec04f7f	-0.3756065
59	0x3f07a9a4	0.52993226
60	0x3f0b3c94	0.5438931
61	0xbd093d6f	-0.033505853
62	0x3e874934	0.26423037
63	0xbf313b8e	-0.692315
64	0x3ef5be05	0.47996536
65	0x3e7237a7	0.23654042
66	0xbd1d6d1d	-0.038434137
67	0x3f34d04e	0.7063035
68	0xbf359761	-0.7093411
69	0x3f356fc3	0.7087366
70	0xbe07ab2d	-0.13248892
71	0xbf84b3b3	-1.036734
72	0x3f5b26eb	0.8560626
73	0x3ee8b28f	0.4544873
74	0x3e828e06	0.2549898
75	0xbf082a0f	-0.53189176
76	0x3f3f95ca	0.74837935
77	0xbfb8e887	-1.4445962
78	0xbe3c6d16	-0.18400988
79	0x3ebf82bd	0.37404433
80	0xbe1c4f13	-0.1526454
81	0x3f4b5363	0.79424113
82	0xc014c074	-2.3242464
83	0xbd03740c	-0.032093093
84	0x3d0f9b1e	0.03506004
85	0xbda87392	-0.08225168
86	0x3e51d2e4	0.20490605
87	0x3ed22879	0.41046503
88	0x3ea79130	0.32727957
89	0x3e397deb	0.1811444
90	0xbec33be0	-0.38131618
91	0xbd0e22d3	-0.03470118
92	0xbd88566f	-0.06657111
93	0x3da49e76	0.080380365
94	0xbe886019	-0.26635817
95	0x3f7bd126	0.9836601
96	0xbd9b58e5	-0.07585315
97	0x3eb36325	0.3503658
98	0x3f03462a	0.51278937
99	0xbe98f807	-0.2987673
100	0xbfa0c826	-1.256108
101	0x3e076bfb	0.13224785
102	0x3f185504	0.59504724
103	0x3ee7dd82	0.45286185
104	0xbecc08fe	-0.3985061
105	0x3e0cde8f	0.13756774
106	0x3c0c3927	0.008558548
107	0xbe932b74	-0.2874409
108	0x3e024acf	0.1272385
109	0xbe8b26f2	-0.2717815
110	0xbe2c64ad	-0.1683528
111	0xbe99a850	-0.30011225
112	0xbf365de8	-0.7123704
113	0xbe8b5e88	-0.2722056
114	0xbc18178f	-0.009282961
115	0x3f202878	0.6256175
116	0xbf0782c1	-0.5293389
117	0x3f19861b	0.59970254
118	0x3e0cc326	0.13746318
119	0xbedbc9a4	-0.42927277
120	0xc056c5cc	-3.3558226
121	0xc0913b82	-4.538514
122	0xbd49550c	-0.049153373
123	0x3e96e8ef	0.2947459
124	0x3ed6f133	0.41980895
125	0x3c8c9d93	0.017164981
126	0x3ea1ab89	0.31576183
127	0x3eec005d	0.46094027
128	0xbe570307	-0.20997249
129	0x3ef7b447	0.48379728
130	0xbec1e2a6	-0.37868232
131	0x3dd4c933	0.10389938
132	0xbe292d50	-0.16521192
133	0xbe6b8b2d	-0.2300231
134	0xbe8c9c11	-0.2746282
135	0x3dad2ba5	0.0845559
136	0xbf18f0fd	-0.5974272
137	0xbefc7ef6	-0.49315614
138	0xbeae101f	-0.33996674
139	0xbeb3353d	-0.35001555
140	0xbdb6e9c0	-0.08931303
141	0xbea5b7f4	-0.32366908
142	0xbc810b70	-0.015752524
143	0xbe3c6636	-0.18398365
144	0x3cd47740	0.02593577
145	0xbdf6debd	-0.12054203
146	0x3f363c37	0.7118563
147	0x3ef14d0b	0.47129092
148	0x3ea903ab	0.3301061
149	0xbed16e87	-0.40904638
150	0x3f46c7e3	0.7764875
151	0xbedf4ab5	-0.43611684
152	0xbfa94e7d	-1.3227078
153	0x3db85d96	0.09002225
154	0xbe8f8e15	-0.28038087
155	0x3f675373	0.9036171
156	0x3f11ac9c	0.56904006
157	0x3e3ffec4	0.18749529
158	0x3c363bd7	0.011122665
159	0xbf272719	-0.65294033
160	0xbe71cd39	-0.23613442
161	0xbe95189e	-0.29120344
162	0xbe2babfc	-0.16764826
163	0x3dc85420	0.097816706
164	0x3e6c3428	0.23066771
165	0x3f29c9cc	0.6632354
166	0xbeedd2e4	-0.4644996
167	0xbecb8220	-0.39747715
168	0xbd8dd301	-0.069250114
169	0x3ea6a37b	0.325466
170	0xc0a47489	-5.1392255
171	0xbe5d0090	-0.21582246
172	0xbf196b1c	-0.5992906
173	0x3e905c4c	0.28195417
174	0xbdaea9a4	-0.0852845
175	0xbf1c5750	-0.6107073
176	0xbeb81b75	-0.35958448
177	0xbe9fa575	-0.3118092
178	0x3eea9c38	0.4582231
179	0xbeea2a22	-0.4573527
180	0x3ed3d461	0.4137297
181	0xbe8eef64	-0.27917016
182	0x3ee3ab1d	0.44466487
183	0x3f1b7b0b	0.60734624
184	0xbf616d0b	-0.8805701
185	0xbf91e566	-1.1398132
186	0x3e90c63d	0.28276244
187	0xc01fc4ea	-2.4963937
188	0xbd125f2b	-0.03573529
189	0xbdad8b42	-0.08473827
190	0xbee25761	-0.4420729
191	0xbed46c45	-0.41488853
192	0x3f033d7d	0.512657
193	0xbf255c16	-0.64593637
194	0x3e9d065e	0.3066892
195	0x3f607a39	0.87686497
196	0xbea8176e	-0.32830375
197	0xbe6fdee2	-0.23424867
198	0xbec403d8	-0.38284183
199	0x3e807bb4	0.25094378
200	0xbef1b7ab	-0.4721044
201	0xbe77c617	-0.24196659
202	0x3d1a3bd0	0.037654698
203	0x3ecc8eff	0.39952847
204	0xbf151929	-0.58241516
205	0x3eb20ccd	0.3477539
206	0x3e717379	0.23579206
207	0xbf271cd7	-0.6527838
208	0xbc0a9a29	-0.008459606
209	0xbe824c95	-0.25449052
210	0xbd8c202e	-0.06842075
211	0xbe166a03	-0.14688878
212	0xbe63f41e	-0.22261092
213	0x3f334229	0.7002283
214	0xbf35dc9a	-0.71039736
215	0x3db86e71	0.0900544
216	0x3f5fc20b	0.8740546
217	0x3d395ca7	0.045254376
218	0xbefaeecb	-0.4901031
219	0x3e36cee1	0.17852356
220	0xbf2ee205	-0.6831363
221	0x3d020cee	0.031750612
222	0x3f5cac37	0.8620028
223	0x3f0699b9	0.5257831
224	0x3c027a40	0.007963717
225	0x3f28e194	0.65969205
226	0xbc0773a0	-0.008267313
227	0xbe980f75	-0.29699293
228	0x3ee98f74	0.4561726
229	0xbf3bcd9e	-0.7336062
230	0xbed22dd4	-0.4105059
231	0xbfeb533b	-1.8384775
232	0x3eef3c83	0.46725854
233	0x3eebfc7f	0.46091077
234	0x3c9bdc30	0.019025892
235	0xbeb71d7e	-0.35764688
236	0xbe2d5412	-0.16926602
237	0x3f3af2a7	0.7302651
238	0xbb95092e	-0.0045482134
239	0x3ed4db00	0.41573334
240	0x3ef77018	0.48327708
241	0x3ea2b524	0.31778824
242	0xbe969d6f	-0.29416987
243	0xbddd31cf	-0.10800516
244	0x3f2d3a94	0.6766751
245	0x3f080164	0.5312712
246	0xbd19dec9	-0.03756598
247	0x3f2d188e	0.6761559
248	0xbe8effce	-0.27929538
249	0x3ee8cda2	0.45469385

fc1.bias f4 [50]
0	0x3d387f5a	0.045043327
1	0x3ec9bac9	0.39400318
2	0x3c5b7637	0.013394884
3	0x3e90ca36	0.28279275
4	0x3e1d9fc9	0.15392984
5	0x3dd77205	0.105197944
6	0xbf0ff75f	-0.56236833
7	0x3eb713a3	0.3575717
8	0x3e6e1e05	0.23253639
9	0x3c620e69	0.013797381
10	0x3e750bee	0.23930332
11	0xbcf07391	-0.029351981
12	0xbf28c8ec	-0.6593158
13	0xbed7422b	-0.4204267
14	0x3cc75c81	0.024336101
15	0xbcb62687	-0.022235168
16	0xbf067a56	-0.5253042
17	0x3e398f4f	0.18121074
18	0xbeb0bcef	-0.34519145
19	0x3e96eb4d	0.29476395
20	0xbe0232d1	-0.12714697
21	0x3e638de9	0.22222103
22	0x3f08d887	0.53455395
23	0xbed6551d	-0.4186181
24	0x3d8007de	0.062515005
25	0x3e99750b	0.2997211
26	0xbe21d7c2	-0.15804961
27	0x3f14a9a3	0.58071345
28	0xbed0ed50	-0.40806055
29	0x3dfe3a3f	0.12413453
30	0x3c22c1bc	0.009933885
31	0x3e51bb36	0.20481572
32	0xbe54f512	-0.20796612
33	0x3ee01665	0.43767086
34	0x3eb452b3	0.35219344
35	0x3e67ab1c	0.22623867
36	0xbf1e3c7e	-0.61811054
37	0x3e964d1a	0.293557
38	0xbdcfefba	-0.10153146
39	0x3e97cec4	0.29649937
40	0xbf294d30	-0.66133404
41	0x3e1718f4	0.14755613
42	0xbdf6a814	-0.12043777
43	0x3e65650f	0.22401832
44	0xbd81386f	-0.06309592
45	0xbe5f160e	-0.21785757
46	0xbd938f58	-0.07205075
47	0x3cdb7ef5	0.026793936
48	0xbd8ef3d6	-0.06980102
49	0x3e02757f	0.12740134

fc2.weight f4 [30, 50]
0	0x3ed0a295	0.4074904
1	0x3ec97d75	0.3935353
2	0xbe07f3c1	-0.13276578
3	0x3de7f689	0.1132632
4	0x3e035fb3	0.12829475
5	0x3e901ef6	0.2814862
6	0x3eaaf7b4	0.33392107
7	0xbeb4d573	-0.353191
8	0x3e2b234e	0.16712686
9	0x3e906f00	0.28209686
10	0x3eb173ba	0.34658605
11	0x3d3f5fcb	0.046722215
12	0x3f3d5fe9	0.7397447
13	0xbd33bdd8	-0.04388222
14	0x3d987515	0.074442066
15	0xbe91e3d0	-0.2849412
16	0xbfbfabdf	-1.4974326
17	0x3e4ff0c0	0.20306683
18	0xbef06879	-0.46954706
19	0x3eb982ff	0.36232755
20	0xbdb5f917	-0.08885401
21	0x3e3d5225	0.18488367
22	0xbc215ecd	-0.009849262
23	0x3ec6ed6c	0.38853014
24	0xbf2bd971	-0.67128664
25	0x3e6252d9	0.22101916
26	0x3d085836	0.03328725
27	0x3e4d37dd	0.20040841
28	0xbdca8f7c	-0.09890649
29	0x3eae758a	0.3407405
30	0x3e4736ff	0.19454573
31	0x3eba66b6	0.36406487
32	0xbca7f1e4	-0.020501085
33	0x3d95657e	0.07294749
34	0xbf0700b1	-0.5273543
35	0x3d7c534a	0.06160287
36	0x3ea99fa8	0.3312962
37	0xbe93f6bd	-0.28899184
38	0xbe844a48	-0.25837922
39	0x3e675451	0.22590758
40	0x3e805591	0.25065282
41	0xbea19c0c	-0.31564367
42	0xbe56e615	-0.20986207
43	0xbdab2f0e	-0.08358584
44	0xbf063d41	-0.52437216
45	0xbe4e3f19	-0.20141257
46	0x3ebf0bdc	0.37313735
47	0x3e40c2df	0.18824337
48	0xbe9c6e78	-0.3055303
49	0x3ee23d0a	0.44187194
50	0xbda47a72	-0.08031167
51	0x3d29b1c5	0.0414293
52	0xbe96cc48	-0.2945273
53	0xbde8a4e8	-0.11359578
54	0x3d87fe00	0.066402435
55	0x3e2d4721	0.16921665
56	0x3e74b1ee	0.23896
57	0xbd33b7fa	-0.043876626
58	0x3e246036	0.16052327
59	0xbebb7bdc	-0.36617935
60	0xbd315753	-0.04329617
61	0x3da28194	0.07934871
62	0x3f0904ff	0.5352325
63	0xbd232596	-0.039830767
64	0x3dc61809	0.09672553
65	0xbd760229	-0.060060654
66	0xbf9fa965	-1.247357
67	0x3e0c6103	0.13708882
68	0xbed3ecfb	-0.4139174
69	0x3e4829b0	0.19547153
70	0x3d6bf931	0.057610694
71	0x3e1cbdbd	0.15306754
72	0xbc8090c4	-0.01569403
73	0xbeb3569f	-0.35027024
74	0xbfbad451	-1.4596044
75	0x3dc5fc34	0.096672446
76	0x3d50ec53	0.051006626
77	0x3e3a8d77	0.18218027
78	0x3d591db4	0.053006843
79	0x3e86fb59	0.26363638
80	0xbe114713	-0.14187269
81	0x3e43c96a	0.19119802
82	0x3de4a91e	0.11165069
83	0xbcff6508	-0.031176105
84	0x3edd4729	0.43218353
85	0x3d218175	0.0394301
86	0xbdba6b01	-0.091024406
87	0x3f2593ad	0.6467846
88	0xbea715c7	-0.32633802
89	0x3e0fb653	0.14034395
90	0x3cd96aae	0.026540127
91	0xbca5d77b	-0.02024435
92	0x3d8e253f	0.06940698
93	0x3eafe38f	0.343533
94	0xbd869845	-0.06572012
95	0x3e0b2d6a	0.13591543
96	0x3da7a321	0.08185411
97	0xbc575b06	-0.01314426
98	0x3ceb280a	0.028705616
99	0x3e50ca9b	0.20389788
100	0xbdc03178	-0.093844354
101	0xbe04bf91	-0.12963702
102	0xbe133e6a	-0.14379278
103	0x3c501141	0.012699426
104	0x3dc26231	0.09491385
105	0xbd9078c8	-0.07054287
106	0xbe1093ce	-0.14118883
107	0xbe24a411	-0.16078211
108	0x3ccd1194	0.025032796
109	0xbe156fc0	-0.1459341
110	0xbe11d094	-0.14239722
111	0xbe0e8721	-0.13918735
112	0x3cf116d4	0.02942983
113	0xbdb29aef	-0.087209575
114	0xbe26f5fe	-0.16304776
115	0xbd836adf	-0.064168684
116	0x3d893b6c	0.06700787
117	0xbd4f61c7	-0.050630357
118	0xbdbb215d	-0.09137223
119	0x3ca70a2f	0.020390598
120	0xbe0f25da	-0.13979283
121	0x3d313fdc	0.04327379
122	0x3d815757	0.06315487
123	0xbde544f8	-0.11194795
124	0xbd5b8da4	-0.053601876
125	0xbb4ef5ba	-0.003157957
126	0x3cce2584	0.025164373
127	0xbdfb96ed	-0.12284646
128	0x3dc9aa60	0.098469496
129	0xbd9e36c3	-0.07725289
130	0x3d93d2e9	0.07217962
131	0xbd1cc512	-0.03827388
132	0x3dcc804e	0.0998541
133	0xbd1f54df	-0.0388993
134	0x3ddd264d	0.10798321
135	0xbdc53dd4	-0.096309334
136	0x3d9de718	0.07710093
137	0x3dad60e8	0.08465749
138	0xbd55e380	-0.052218914
139	0xbca6de14	-0.020369567
140	0xbdb537f2	-0.08848561
141	0xbd56eb4e	-0.052470498
142	0xbd05ed82	-0.03269721
143	0x3d2c2055	0.04202302
144	0xbd4909fe	-0.049081795
145	0xbc84d6a6	-0.016215634
146	0xbcb7eb7c	-0.022451155
147	0x3d49a91a	0.049233533
148	0x3ca34491	0.019930156
149	0xbd0736cf	-0.033011254
150	0xbc8f9efc	-0.017531864
151	0xbe1d4f53	-0.15362291
152	0x3ce43082	0.027855162
153	0xbd4af52e	-0.049550228
154	0xbd80969f	-0.06278729
155	0x3cb20785	0.021732101
156	0xbc645f20	-0.013938695
157	0xbd8225b0	-0.063548446
158	0xbe1a4364	-0.1506477
159	0x3d90abc8	0.07064015
160	0x3df0b231	0.11752737
161	0xbe231bb6	-0.1592854
162	0x3d49d643	0.0492766
163	0xbc70e85f	-0.014703839
164	0xbe02402f	-0.12719797
165	0xbd2f0b65	-0.042735476
166	0xbd6bc030	-0.05755633
167	0x3d00700b	0.031356853
168	0x3e0129df	0.12613629
169	0xbc88d6c2	-0.016703967
170	0xbdcd38d1	-0.100206025
171	0xbe09b25e	-0.13446948
172	0x3cb294da	0.021799494
173	0xbda90468	-0.082527936
174	0x3d4f968f	0.050680693
175	0xbe0e2dcf	-0.13884662
176	0xbd3689b0	-0.044564903
177	0x3d8f70fa	0.070039704
178	0x3dd562c0	0.10419226
179	0xbc9f7f24	-0.019469805
180	0x3d0678b0	0.03282994
181	0xbdaa13e8	-0.08304578
182	0x3da686a2	0.08131148
183	0xbe022274	-0.12708455
184	0xbe198ed6	-0.14995894
185	0xbe039481	-0.12849618
186	0xbd693b3c	-0.056941256
187	0x3d570b04	0.05250074
188	0x3df1c246	0.11804633
189	0x3bfe7740	0.0077656806
190	0xbd859fbc	-0.065246075
191	0xbdf6afcb	-0.120452486
192	0xbe101d47	-0.14073668
193	0xbce365b2	-0.027758453
194	0x3da3373a	0.07969518
195	0xbd6f5274	-0.058428243
196	0xbd9b743d	-0.0759053
197	0x3ddae500	0.106882095
198	0xbd8700ad	-0.06591926
199	0xbd64507d	-0.055740822
200	0x3e4fb3f5	0.20283492
201	0x3e18afcf	0.14910816
202	0xbcf1e602	-0.029528622
203	0x3e019fb6	0.12658581
204	0x3e782d36	0.24235997
205	0x3ebc522a	0.36781436
206	0x3e8c9e25	0.27464405
207	0xbe4d791e	-0.20065734
208	0x3e12cfa7	0.14337026
209	0x3ea1bd2d	0.31589642
210	0x3e33206a	0.17492834
211	0x3cfb921a	0.030709315
212	0x3ea86ffe	0.32897943
213	0x3cd1045c	0.025514774
214	0x3e8f05e7	0.2793419
215	0xbe5526e0	-0.20815611
216	0xbf903e61	-1.1269037
217	0x3d75a1fd	0.059968937
218	0xbf083a2f	-0.5321378
219	0x3ea25668	0.31706548
220	0xbe705e1f	-0.23473404
221	0x3df10980	0.1176939
222	0xbd63266d	-0.055456568
223	0x3f08427b	0.5322644
224	0x3d401ed5	0.046904404
225	0x3e28426c	0.16431588
226	0x3dc1bdf6	0.0946006
227	0x3ec73285	0.3890573
228	0x3cbc8270	0.023011416
229	0x3d9659d1	0.0734135
230	0x3f126bdd	0.57195836
231	0x3e4a90e8	0.1978184
232	0xbd603e92	-0.05474717
233	0x3be0ce82	0.006860555
234	0xbf49bba3	-0.78801936
235	0xbe34254a	-0.1759235
236	0x3e296644	0.16542917
237	0xbf3fb94e	-0.7489213
238	0xbe19fb52	-0.15037277
239	0x3dd8460a	0.10560234
240	0x3d9aae57	0.07552784
241	0xbed117b4	-0.40838397
242	0xbe8d61f4	-0.27613795
243	0x3d96447d	0.07337282
244	0xbf030735	-0.5118287
245	0xbeb246cd	-0.34819642
246	0x3edbf08c	0.4295696
247	0x3e8da343	0.2766362
248	0xbee9704a	-0.45593482
249	0x3ebb1dd8	0.36546206
250	0xbdaa1414	-0.08304611
251	0xbde90d80	-0.11379528
252	0xbd911f06	-0.070859954
253	0xbdafa239	-0.085758634
254	0xbe233c22	-0.15940908
255	0xbb02583a	-0.0019889013

fc2.bias f4 [30]
0	0x3e8a8228	0.27052426
1	0x3e2e373a	0.17013255
2	0xbd9c1e1c	-0.076229304
3	0xbdb49f77	-0.08819478
4	0x3de898b6	0.11357252
5	0xbdf007cb	-0.117202364
6	0xbe1bdb9e	-0.15220496
7	0x3e073419	0.13203467
8	0xbd822ac8	-0.06355816
9	0xbd7a0a7f	-0.061045166
10	0x3cbaa74f	0.022784857
11	0x3dddc474	0.10828486
12	0x3e513e96	0.20434031
13	0xbddd77f4	-0.10813895
14	0xbd8f9cad	-0.070123054
15	0x3e1cc1a9	0.1530825
16	0xbd4b9d27	-0.04971042
17	0xbee17584	-0.4403497
18	0x3cb76f1f	0.022391854
19	0x3e1697dc	0.14706367
20	0xbde4983b	-0.11161848
21	0x3de5582d	0.11198459
22	0x3e094c76	0.13408074
23	0xbcf4f4ee	-0.029901948
24	0xbda9f4d0	-0.082986474
25	0x3dd33ce0	0.10314345
26	0x3e07cc63	0.13261561
27	0x3ba99814	0.0051756
28	0x3d8934e2	0.0669954
29	0xbe5dd071	-0.21661545

fc3.weight f4 [3, 30]
0	0xbec9e340	-0.3943119
1	0xbe5b949f	-0.21443413
2	0x3d1f2614	0.038854674
3	0xbd9d87af	-0.07691895
4	0xbeef00d7	-0.46680328
5	0x3e16112c	0.14654988
6	0x3d63508f	0.05549675
7	0xbe112983	-0.14175992
8	0xbe60fe89	-0.21972097
9	0xbe859b24	-0.26094925
10	0xbecd0804	-0.40045178
11	0x3f619a81	0.8812638
12	0x3f1adb7f	0.60491174
13	0xbcbe9d75	-0.02326844
14	0x3f18a4c5	0.5962642
15	0x3ca9e527	0.020739151
16	0xbd9e5085	-0.07730202
17	0xbeadcdad	-0.3394598
18	0x3e927f08	0.28612542
19	0xbecec0eb	-0.4038156
20	0x3dc00f7d	0.09377954
21	0x3eec786a	0.4618562
22	0xbf24fba8	-0.64446497
23	0x3ed923ae	0.42410034
24	0x3ef03c4d	0.46921006
25	0x3d945e8d	0.07244597
26	0xbe5e7cae	-0.21727249
27	0x3cc63c02	0.024198536
28	0xbe713000	-0.23553467
29	0xbf291100	-0.66041565
30	0xbe6090b6	-0.21930203
31	0xbefd646c	-0.49490678
32	0x3d86985e	0.065720305
33	0xbcbe5eb8	-0.023238525
34	0xbe552543	-0.20814995
35	0x3c246c32	0.010035561
36	0xbb68efc0	-0.0035543293
37	0xbee59936	-0.44843453
38	0xbee0d298	-0.4391067
39	0x3d7010ab	0.058609646
40	0x3f08fc5f	0.5351009
41	0xbe917f4c	-0.28417432
42	0x3f427aa9	0.75968415
43	0xbd666158	-0.056245178
44	0x3f6eaadd	0.93229467
45	0x3dfad03f	0.12246751
46	0xbe1ba7b8	-0.15200698
47	0xbf0d8cf5	-0.5529321
48	0x3f83d4e4	1.0299344
49	0xbe53b3a9	-0.20674004
50	0xbe684aa6	-0.22684726
51	0x3f6b3396	0.9187559
52	0x3f4d9da0	0.8031864
53	0x3f3920f6	0.7231592
54	0x3e0caa0d	0.13736744
55	0x3fb2e0de	1.3974874
56	0xbee6ed60	-0.45102978
57	0xbe18dd31	-0.14928128
58	0xbed2f98d	-0.41206017
59	0xbd90b3f7	-0.070655756
60	0xbe782ec7	-0.24236594
61	0x3e08ecfe	0.13371655
62	0xbdc94ec9	-0.0982948
63	0x3e18f84e	0.1493847
64	0xbf14f62c	-0.5818813
65	0x3de2698c	0.11055288
66	0x3dcfab38	0.10140079
67	0xbedb7af8	-0.42867255
68	0xbe00ed1d	-0.12590452
69	0xbf4bfafd	-0.7967985
70	0x3fa704ae	1.3048303
71	0x3fa28988	1.2698221
72	0x3e98e650	0.29863214
73	0x3e0e5c02	0.13902286
74	0x3eb0b94a	0.34516364
75	0xbf2cf31e	-0.6755847
76	0x3d41b1fc	0.04728888
77	0xbf4b73ae	-0.7947339
78	0xbeafc192	-0.3432737
79	0xbe66efa5	-0.22552355
80	0xbc0396b9	-0.008031541
81	0x3f03a1b2	0.514186
82	0x3f0242f0	0.5088339
83	0x3f03b42b	0.5144679
84	0x3f761861	0.9613095
85	0x3e8e49bd	0.27790633
86	0x3e2d2c3e	0.16911408
87	0x3cc0032c	0.023439012
88	0xbe6f89b3	-0.23392372
89	0xbf0b0eda	-0.54319537

fc3.bias f4 [3]
0	0xbe82ba67	-0.2553284
1	0xbaf9babd	-0.0019052845
2	0xbdeef559	-0.1166789

exp_avg f4 [50, 5]
0	0xba9bc4d7	-0.0011884224
1	0xbb069742	-0.0020536934
2	0xbb29d23e	-0.0025912668
3	0x3a768015	0.0009403241
4	0xba768019	-0.00094032433
5	0x3a292f60	0.0006453898
6	0x3ab2ea6f	0.0013650189
7	0x39e92cd4	0.00044474623
8	0x3a24bfa9	0.0006284663
9	0xba24bfa9	-0.0006284663
10	0xbb1212d4	-0.0022289054
11	0xbae1f955	-0.0017240444
12	0xbc20e1be	-0.009819446
13	0xba9f2598	-0.0012141941
14	0x3a9f2598	0.0012141941
15	0x39b54bb9	0.00034579428
16	0x3aa437f0	0.0012528878
17	0xb91b87f4	-0.00014832598
18	0xba878225	-0.0010338469
19	0x3a878228	0.0010338472
20	0x3a763603	0.00093922036
21	0x3a04105a	0.0005037837
22	0x3b4b3f07	0.003101291
23	0xba7344a5	-0.0009279943
24	0x3a7344a6	0.0009279944
25	0x3b2c823b	0.002632274
26	0x3b8613fb	0.0040917373
27	0x3ba821b7	0.0051309722
28	0x38ed8e60	0.0001132756
29	0xb8ed8ec0	-0.0001132763
30	0xba74a5a0	-0.00093325414
31	0xb9e4e77a	-0.00043660012
32	0xbac3cc64	-0.0014938232
33	0xb7a61ce8	-1.9802203e-05
34	0x37a61d08	1.980226e-05
35	0x38cf0ce9	9.872934e-05
36	0x391a1b37	0.00014696723
37	0xba9c432f	-0.0011921878
38	0x3b751898	0.0037398692
39	0xbb751898	-0.0037398692
40	0x3a192ba6	0.0005842991
41	0x3b1eae9c	0.0024212962
42	0x3a216b9f	0.00061576994
43	0x3a82501e	0.000994209
44	0xba82501d	-0.0009942089
45	0xba322940	-0.0006796308
46	0xb938e6f6	-0.00017633647
47	0xbb9de2d6	-0.0048183007
48	0x3b216607	0.0024627463
49	0xbb216608	-0.0024627466
50	0x39ddd2db	0.00042309504
51	0x3a0a5276	0.000527657
52	0xb908c2a0	-0.00013042474
53	0xb885681d	-6.361327e-05
54	0x388567fc	6.361303e-05
55	0x3b14c944	0.0022702971
56	0x3ae3a2fe	0.0017367301
57	0x3be0862d	0.0068519325
58	0xbadcd92e	-0.0016849393
59	0x3adcd933	0.0016849398
60	0x3aebc2cf	0.0017987135
61	0x3a9917f5	0.0011680113
62	0xbadd2b3f	-0.001687385
63	0x3b853e3d	0.0040662573
64	0xbb853e3c	-0.004066257
65	0xbaa40a46	-0.0012515269
66	0xbb1f11c2	-0.002427206
67	0x37878540	1.6155303e-05
68	0xbace3aa1	-0.0015734026
69	0x3ace3aa0	0.0015734024
70	0xb9bd7809	-0.00036138322
71	0xb7b65045	-2.173347e-05
72	0xbbbc747a	-0.00575119
73	0x3ad5e3e4	0.0016318527
74	0xbad5e3e4	-0.0016318527
75	0x39f793ce	0.00047221634
76	0x3a8a06a3	0.0010530542
77	0x38d17bd0	9.9889585e-05
78	0xba80b688	-0.0009820024
79	0x3a80b68c	0.0009820028
80	0xbba46024	-0.0050163437
81	0xbaaf28da	-0.0013363615
82	0x36c4f7df	5.870111e-06
83	0x3b23d058	0.0024996009
84	0xbb23d059	-0.002499601
85	0x3a72680e	0.0009247073
86	0x3aae43cd	0.0013295353
87	0x3a0b3066	0.0005309641
88	0x3a24d248	0.0006287438
89	0xba24d244	-0.00062874355
90	0x00000004	6e-45
91	0x00000004	6e-45
92	0x00000004	6e-45
93	0x00000004	6e-45
94	0x80000004	-6e-45
95	0x3a52c8f9	0.00080408115
96	0x3a3df32d	0.0007246014
97	0x3ac72ec1	0.0015196429
98	0xba1f65d6	-0.00060805434
99	0x3a1f65d6	0.00060805434
100	0x3a4fc226	0.0007925354
101	0x3afa3f4e	0.0019092353
102	0xba4d6d22	-0.00078363915
103	0x3b1e8a1e	0.002419121
104	0xbb1e8a1c	-0.0024191206
105	0x395f162a	0.00021275194
106	0x388073aa	6.12506e-05
107	0x3a201d7d	0.000610791
108	0xba3afedd	-0.00071333145
109	0x3a3afedc	0.0007133314
110	0x3b170638	0.0023044478
111	0x3b91861d	0.0044410364
112	0xbacf4e74	-0.0015816228
113	0xb96d8390	-0.00022651092
114	0x396d83b2	0.00022651142
115	0xba595854	-0.0008291055
116	0xba44d0e8	-0.0007507936
117	0xbb6a4012	-0.0035743755
118	0xbb3721a4	-0.0027943635
119	0x3b3721a2	0.002794363
120	0x3959b8cf	0.00020763579
121	0x395a7738	0.00020834513
122	0xbc223ec0	-0.009902656
123	0x38ee44c0	0.0001136153
124	0xb8ee44c0	-0.0001136153
125	0x3ab8d0f7	0.0014100362
126	0x3af714ea	0.0018850837
127	0x3aec8b5e	0.0018046906
128	0x3a35faa6	0.00069419516
129	0xba35faac	-0.0006941955
130	0x00000000	0.0
131	0x00000004	6e-45
132	0x00000000	0.0
133	0x00000004	6e-45
134	0x80000004	-6e-45
135	0x3afb812d	0.0019188278
136	0x3adab548	0.0016686106
137	0x3ab35815	0.0013682867
138	0xbb0a4539	-0.0021098389
139	0x3b0a4539	0.0021098389
140	0x00000000	0.0
141	0x00000000	0.0
142	0x00000000	0.0
143	0x00000000	0.0
144	0x00000000	0.0
145	0x3af6f4f8	0.0018841317
146	0x3ae17679	0.0017201445
147	0x3b1ffdc9	0.0024412742
148	0x3af99827	0.0019042537
149	0xbaf99822	-0.0019042531
150	0x3a567a1f	0.00081816496
151	0x3a173b5c	0.0005769038
152	0xb88b973d	-6.656207e-05
153	0xbb2d410b	-0.0026436474
154	0x3b2d410c	0.0026436476
155	0x3a89ec69	0.0010522726
156	0x3a01c491	0.000495025
157	0x3b64da28	0.003492007
158	0xba86c0d5	-0.0010280857
159	0x3a86c0d6	0.0010280858
160	0x00000000	0.0
161	0x00000000	0.0
162	0x00000000	0.0
163	0x00000000	0.0
164	0x00000000	0.0
165	0xba82e746	-0.0009987138
166	0xbb4c872f	-0.0031208505
167	0x3af601cf	0.001876885
168	0xba9c6df3	-0.0011934623
169	0x3a9c6df3	0.0011934623
170	0x38fa228f	0.00011927366
171	0x3ac66dae	0.0015138888
172	0xbaaec689	-0.0013334315
173	0x3bef7373	0.007307464
174	0xbbef7370	-0.0073074624
175	0xba0251de	-0.00049713056
176	0x39ecd928	0.00045175222
177	0xba972388	-0.0011530975
178	0xb93d144c	-0.00018032006
179	0x393d1444	0.00018031994
180	0xba618561	-0.0008602944
181	0xbab059f7	-0.0013454546
182	0x3a9d2189	0.0011988144
183	0xb9412cfe	-0.00018422675
184	0x39412d06	0.00018422687
185	0xba29f5ee	-0.0006483485
186	0xbb120f5a	-0.0022286982
187	0x39607f12	0.00021409642
188	0x3b8d82dc	0.004318578
189	0xbb8d82dc	-0.004318578
190	0x3a566c8d	0.00081796275
191	0x3a2b7181	0.0006540046
192	0x3a9aa699	0.0011798918
193	0xbab5c6ad	-0.0013868414
194	0x3ab5c6ad	0.0013868414
195	0xb9e4a243	-0.00043608443
196	0xbaa7e174	-0.0012808279
197	0x3ab8dca8	0.0014103847
198	0xba069203	-0.0005133452
199	0x3a069201	0.00051334506
200	0xb781eeb3	-1.5489151e-05
201	0xb8ff1aa8	-0.00012164313
202	0xb9035431	-0.00012524497
203	0xba075e86	-0.00051639264
204	0x3a075e86	0.00051639264
205	0xbad5189a	-0.0016257942
206	0xbb5deeed	-0.0033864335
207	0x3a989e2c	0.0011643819
208	0x3acc0652	0.0015565848
209	0xbacc0653	-0.001556585
210	0xba88a8f2	-0.0010426326
211	0xba4fd79c	-0.00079285516
212	0xb964f8c8	-0.00021836453
213	0xba251e55	-0.00062987703
214	0x3a251e54	0.000629877
215	0x3af8a52d	0.0018970125
216	0x3aeca734	0.0018055202
217	0x3be7bc88	0.007072035
218	0x394a8530	0.00019313837
219	0xb94a84f0	-0.00019313744
220	0xbb868d40	-0.004106194
221	0x3982cbf0	0.00024947478
222	0xbc3c59e6	-0.011496043
223	0x3b8e83c2	0.004349203
224	0xbb8e83c2	-0.004349203
225	0xb984b7d6	-0.0002531397
226	0xb97b1418	-0.00023944711
227	0x3ac6829a	0.0015145123
228	0xba7219b0	-0.0009235395
229	0x3a7219ac	0.0009235393
230	0x39f5366d	0.00046770592
231	0x3a0e7de3	0.00054356287
232	0x3c111213	0.008854407
233	0xb9b43a49	-0.000343757
234	0x39b43a3c	0.00034375663
235	0xbbb0f784	-0.0054006
236	0xbbddaf4a	-0.006765281
237	0xbb9480f8	-0.004531976
238	0xb7b06900	-2.102973e-05
239	0x37b06880	2.1029497e-05
240	0xbb19bfdb	-0.0023460302
241	0xbb8318f3	-0.004000777
242	0x3aaf4e17	0.0013374713
243	0x3b0a543d	0.0021107339
244	0xbb0a543f	-0.0021107343
245	0x3ab0ec35	0.001349813
246	0x3ad198fc	0.0015991027
247	0x3b273da4	0.0025518918
248	0x3ab9bf7d	0.0014171448
249	0xbab9bf77	-0.0014171441

exp_avg_sq f4 [50, 5]
0	0x3957b7ce	0.0002057247
1	0x394b4854	0.00019386533
2	0x39547ea3	0.00020265071
3	0x381d9e3f	3.7579095e-05
4	0x381d9e3e	3.757909e-05
5	0x3792a535	1.7481487e-05
6	0x37cfa911	2.475505e-05
7	0x38536370	5.039893e-05
8	0x38992666	7.302761e-05
9	0x38992668	7.302762e-05
10	0x39f68309	0.00047018405
11	0x399f5cd3	0.00030396003
12	0x3a8e01d7	0.0010834289
13	0x39be1978	0.000362586
14	0x39be1976	0.00036258594
15	0x382a6adc	4.063068e-05
16	0x38960e33	7.155202e-05
17	0x389c6fe8	7.459504e-05
18	0x3801e8e6	3.09729e-05
19	0x3801e8e6	3.09729e-05
20	0x38052b39	3.1749925e-05
21	0x383f7a1e	4.565168e-05
22	0x38c89904	9.5652445e-05
23	0x386ac376	5.5971985e-05
24	0x386ac373	5.5971974e-05
25	0x3946adfd	0.00018947567
26	0x3958c8ae	0.00020674124
27	0x39b82253	0.00035120788
28	0x38f6859c	0.00011755081
29	0x38f6859c	0.00011755081
30	0x384aa872	4.831743e-05
31	0x37d8994e	2.5820595e-05
32	0x39830734	0.00024991634
33	0x38d09905	9.946715e-05
34	0x38d09905	9.946715e-05
35	0x33932b66	6.853115e-08
36	0x38625b8e	5.3967866e-05
37	0x3826ad2b	3.973876e-05
38	0x38c36d48	9.31868e-05
39	0x38c36d49	9.3186805e-05
40	0x36b450e8	5.3738368e-06
41	0x3796f7b3	1.7996737e-05
42	0x379da358	1.8791921e-05
43	0x378d5969	1.6850145e-05
44	0x378d5969	1.6850145e-05
45	0x38cc1a89	9.7324206e-05
46	0x34eef1e8	4.4506965e-07
47	0x39e37b47	0.00043388663
48	0x38c4efef	9.3906994e-05
49	0x38c4efee	9.390699e-05
50	0x3747b598	1.1903605e-05
51	0x37c67955	2.3659939e-05
52	0x37cba1d6	2.4274847e-05
53	0x37c0e356	2.2994045e-05
54	0x37c0e354	2.2994042e-05
55	0x3921a48a	0.00015415452
56	0x388f103a	6.821794e-05
57	0x3a015bdb	0.0004934647
58	0x3906e8c3	0.00012865946
59	0x3906e8c3	0.00012865946
60	0x396274e3	0.00021596583
61	0x398112a1	0.00024618677
62	0x395b764f	0.00020929541
63	0x39872931	0.00025779897
64	0x39872930	0.00025779894
65	0x391515a7	0.00014217813
66	0x39190d8f	0.00014596268
67	0x392f3929	0.00016710594
68	0x3875cfe8	5.860618e-05
69	0x3875cfe8	5.860618e-05
70	0x383ed4f7	4.549787e-05
71	0x36affc20	5.2447576e-06
72	0x3998f98c	0.00029177626
73	0x38928f03	6.9884605e-05
74	0x38928f03	6.9884605e-05
75	0x36d13848	6.2352374e-06
76	0x37cfcda9	2.4772091e-05
77	0x350105be	4.80646e-07
78	0x378d679d	1.6856759e-05
79	0x378d679d	1.6856759e-05
80	0x38d7b50a	0.0001028572
81	0x3a47a42d	0.00076157117
82	0x348e45ab	2.650025e-07
83	0x3984050f	0.0002518077
84	0x3984050f	0.0002518077
85	0x3737247e	1.09161465e-05
86	0x37553b8b	1.2709653e-05
87	0x37386b3b	1.0992221e-05
88	0x3707b0e6	8.087814e-06
89	0x3707b0e7	8.087815e-06
90	0x2abd4c48	3.3626075e-13
91	0x2fd1632c	3.8087344e-10
92	0x2f5519fe	1.9381471e-10
93	0x3185d744	3.8952823e-09
94	0x3185d744	3.8952823e-09
95	0x38204c62	3.821811e-05
96	0x385bfe07	5.245025e-05
97	0x38a7d2e2	8.0024605e-05
98	0x384023f6	4.580986e-05
99	0x384023f5	4.5809855e-05
100	0x376455a4	1.3609799e-05
101	0x38ac7ad8	8.2244806e-05
102	0x393e2218	0.00018132513
103	0x38ab5fce	8.1717604e-05
104	0x38ab5fce	8.1717604e-05
105	0x36da92b2	6.513984e-06
106	0x370110c2	7.692901e-06
107	0x372e8b1c	1.0403597e-05
108	0x36da4b09	6.5056415e-06
109	0x36da4b08	6.505641e-06
110	0x37d28afb	2.5098669e-05
111	0x386aa85d	5.5946748e-05
112	0x37889004	1.6279526e-05
113	0x3865e28e	5.480885e-05
114	0x3865e28d	5.4808846e-05
115	0x39ece899	0.00045186726
116	0x39a78f8d	0.00031959676
117	0x3a492a9e	0.0007673892
118	0x38f5d4da	0.00011722157
119	0x38f5d4da	0.00011722157
120	0x34b622f8	3.3925585e-07
121	0x33b2c3ca	8.324385e-08
122	0x3a76c389	0.0009413292
123	0x3aa23f92	0.0012378565
124	0x3aa23f94	0.0012378567
125	0x382a3356	4.057897e-05
126	0x380f02fb	3.4096633e-05
127	0x3873af77	5.809913e-05
128	0x37d1ee1a	2.5025616e-05
129	0x37d1ee1c	2.502562e-05
130	0x00000000	0.0
131	0x25805aad	2.2265905e-16
132	0x00000000	0.0
133	0x23a6d906	1.8089669e-17
134	0x23a6d906	1.8089669e-17
135	0x3836e1d3	4.3602497e-05
136	0x387a4f33	5.9678405e-05
137	0x38c9ab66	9.616352e-05
138	0x390ee008	0.00013625633
139	0x390ee009	0.00013625635
140	0x00000000	0.0
141	0x00000000	0.0
142	0x00000000	0.0
143	0x00000000	0.0
144	0x00000000	0.0
145	0x39603d68	0.0002138518
146	0x3958f201	0.00020689519
147	0x39a7b60b	0.00031988355
148	0x3936e40c	0.00017441827
149	0x3936e408	0.00017441821
150	0x3659f0cc	3.2475682e-06
151	0x369e8b2a	4.7249678e-06
152	0x34964430	2.798929e-07
153	0x38131c73	3.5074027e-05
154	0x38131c73	3.5074027e-05
155	0x386dcc5e	5.6695535e-05
156	0x3895ac17	7.136928e-05
157	0x393f876d	0.0001826563
158	0x3896635a	7.171063e-05
159	0x3896635b	7.171064e-05
160	0x00000000	0.0
161	0x00000000	0.0
162	0x00000000	0.0
163	0x00000000	0.0
164	0x00000000	0.0
165	0x3980198d	0.000244331
166	0x398ca284	0.00026823964
167	0x394c101e	0.0001946096
168	0x38a99101	8.085557e-05
169	0x38a99101	8.085557e-05
170	0x3443956d	1.8215151e-07
171	0x399adcad	0.00029537585
172	0x38fc8d19	0.00012042578
173	0x39d205a9	0.00040058538
174	0x39d205a8	0.00040058536
175	0x367bbe5a	3.7512714e-06
176	0x37b18077	2.1159865e-05
177	0x3854b924	5.0717164e-05
178	0x381824e0	3.6273967e-05
179	0x381824e0	3.6273967e-05
180	0x38ae6295	8.315329e-05
181	0x37f21df2	2.8862592e-05
182	0x39b301aa	0.0003414278
183	0x38dc017e	0.000104906954
184	0x38dc017e	0.000104906954
185	0x36a53677	4.9237237e-06
186	0x39555b6e	0.00020347323
187	0x3545f076	7.3738136e-07
188	0x38f8335e	0.000118351294
189	0x38f8335e	0.000118351294
190	0x37dc4b78	2.6261187e-05
191	0x37e625c7	2.7435728e-05
192	0x382b685e	4.0866777e-05
193	0x38674aad	5.514424e-05
194	0x38674aac	5.5144235e-05
195	0x3836bb9c	4.3566906e-05
196	0x385e61b3	5.3019914e-05
197	0x3825a8d2	3.949629e-05
198	0x37c70143	2.3723236e-05
199	0x37c70143	2.3723236e-05
200	0x349fd15d	2.976839e-07
201	0x35b10cd1	1.3191258e-06
202	0x358a5fa2	1.0309634e-06
203	0x36df99c0	6.6638167e-06
204	0x36df99c0	6.6638167e-06
205	0x38f4979d	0.00011663067
206	0x39182be3	0.00014512199
207	0x389eefd8	7.5787015e-05
208	0x383cd3bd	4.501989e-05
209	0x383cd3c0	4.50199e-05
210	0x37123931	8.715594e-06
211	0x37352536	1.0797105e-05
212	0x373008bc	1.0492451e-05
213	0x36f9e765	7.447716e-06
214	0x36f9e765	7.447716e-06
215	0x390ab63a	0.0001322859
216	0x382deb2f	4.1465446e-05
217	0x39f77034	0.0004719511
218	0x3902c2e7	0.00012470373
219	0x3902c2e6	0.00012470371
220	0x39255501	0.00015767293
221	0x398cf97d	0.00026888764
222	0x3a7a9c8c	0.00095600705
223	0x39b84387	0.00035145527
224	0x39b84389	0.00035145532
225	0x389e6346	7.552518e-05
226	0x383775f0	4.3740438e-05
227	0x391f6e12	0.00015204426
228	0x38446874	4.682732e-05
229	0x38446876	4.682733e-05
230	0x3816c993	3.5950517e-05
231	0x35a5691e	1.2324051e-06
232	0x39f86079	0.00047374124
233	0x38bf0aae	9.109579e-05
234	0x38bf0aae	9.109579e-05
235	0x398d1f59	0.00026916972
236	0x39958bd9	0.0002852369
237	0x3986a674	0.0002568249
238	0x388f28a8	6.826344e-05
239	0x388f28a8	6.826344e-05
240	0x39ecb2f2	0.00045146752
241	0x3a1bb096	0.0005939094
242	0x39b2e2bf	0.00034119745
243	0x394d8ad8	0.00019602047
244	0x394d8ad8	0.00019602047
245	0x388dcfda	6.762119e-05
246	0x389e202d	7.54002e-05
247	0x38efbe86	0.00011431896
248	0x3888eded	6.5293025e-05
249	0x3888edeb	6.529301e-05

exp_avg f4 [50]
0	0xbb2a6b04	-0.0026003728
1	0x3af0792c	0.0018346659
2	0xbc1b3408	-0.009472854
3	0xba7dbf3a	-0.0009679679
4	0x3b531e9d	0.0032214292
5	0x3c206e1c	0.009791877
6	0xba6c0087	-0.0009002764
7	0x3b0ac00e	0.0021171602
8	0x3b928e7b	0.0044725514
9	0x3a8f80a0	0.0010948367
10	0x3a33ec34	0.0006863505
11	0x3c114df0	0.008868679
12	0xbb82372d	-0.0039738626
13	0x3b24e621	0.0025161582
14	0xbabfb1a6	-0.0014625087
15	0xbb49d418	-0.0030796584
16	0xba8baa0e	-0.0010655539
17	0x3b3f9157	0.0029230916
18	0x00000004	6e-45
19	0x3ad8fdde	0.001655515
20	0x3bf82ba8	0.0075735636
21	0xba832f7e	-0.0010008661
22	0x3b961586	0.0045802025
23	0xbbc9fa83	-0.0061638965
24	0x3d00059b	0.031255346
25	0x3b8cf60d	0.0043017925
26	0x00000004	6e-45
27	0x3ab4e115	0.001379999
28	0x00000000	0.0
29	0x3b4c056e	0.0031131166
30	0xbbd3fae8	-0.0064691193
31	0x3b2304b5	0.0024874632
32	0x00000000	0.0
33	0xbbaf6fff	-0.005353927
34	0x3bab449a	0.005226684
35	0x3b7787cb	0.0037770148
36	0x3af5481d	0.0018713508
37	0xbc1eb92b	-0.009687702
38	0x3a8e28a6	0.0010845854
39	0xbab98858	-0.0014155013
40	0xba03b503	-0.0005024226
41	0xbb9a30a2	-0.0047055045
42	0xbacd51d2	-0.0015664643
43	0x3c00efa7	0.007869638
44	0x3b1c84a8	0.002388278
45	0xbb14fdbe	-0.002273425
46	0x3c0c6641	0.008569301
47	0xbbb9b42c	-0.00566723
48	0xbc18745c	-0.009305086
49	0x3bdc90ce	0.0067311293

exp_avg_sq f4 [50]
0	0x39f8f6bd	0.0004748608
1	0x39559f98	0.00020372716
2	0x3b7c4a08	0.0038496275
3	0x3a136841	0.000562314
4	0x3a262cd8	0.00063390797
5	0x3b0a9413	0.0021145388
6	0x39eead26	0.00045523903
7	0x3ac83b9e	0.0015276556
8	0x39249052	0.00015694022
9	0x3b22cb0e	0.0024840268
10	0x396a2870	0.00022331043
11	0x3b05ae27	0.0020397992
12	0x3a1c37f5	0.0005959266
13	0x39dd56a0	0.00042216945
14	0x3aefda2f	0.0018299277
15	0x399765c4	0.00028876786
16	0x3a5fbaf7	0.0008534635
17	0x382e44d5	4.1548938e-05
18	0x31948257	4.322185e-09
19	0x3a001eb3	0.0004887387
20	0x3a825ba5	0.0009945525
21	0x3882b6ef	6.232957e-05
22	0x39cdeff2	0.0003927942
23	0x3a891c08	0.0010460624
24	0x3cbf8304	0.023377903
25	0x393983d3	0.00017692083
26	0x25805aad	2.2265905e-16
27	0x3a145172	0.0005657888
28	0x00000000	0.0
29	0x3a57eb16	0.00082366297
30	0x3a21cc79	0.00061721314
31	0x3a8bd35f	0.0010667852
32	0x00000000	0.0
33	0x3a120c70	0.00055713113
34	0x3bb25305	0.0054420256
35	0x3a44edfa	0.0007512268
36	0x3a2d8939	0.0006619874
37	0x3acf6255	0.0015822152
38	0x392846ad	0.00016048057
39	0x397c3f38	0.00024056144
40	0x37292d8c	1.008379e-05
41	0x39a24b6c	0.00030955242
42	0x38566bf5	5.112212e-05
43	0x3b15f287	0.0022880153
44	0x3b81ba28	0.003958959
45	0x39f29333	0.0004626751
46	0x3ab0b2f6	0.0013481069
47	0x3a21e5c8	0.00061759027
48	0x3aa7551a	0.0012766451
49	0x3a21e119	0.0006175205

exp_avg f4 [30, 50]
0	0x3a215a65	0.00061551324
1	0x37159920	8.916744e-06
2	0x38f78f10	0.00011804525
3	0x39046974	0.00012627785
4	0x3a80da20	0.0009830631
5	0x3a020114	0.0004959267
6	0x391e9330	0.00015122886
7	0xb9825482	-0.00024858495
8	0x3832a05c	4.2587853e-05
9	0xb903391f	-0.00012514413
10	0x3a5fd2be	0.0008538178
11	0x39f4bc4e	0.00046679605
12	0xb8244a18	-3.9169652e-05
13	0xb8d2c1e8	-0.00010049698
14	0x3a2e6c20	0.0006653685
15	0x3999d241	0.00029339085
16	0x3883611d	6.2646555e-05
17	0x3a0d70f9	0.00053955574
18	0x80000004	-6e-45
19	0x3a8b8a6b	0.001064611
20	0x392c129a	0.00016410128
21	0x390e9063	0.00013595964
22	0xb8165d20	-3.5849516e-05
23	0x39b56e1f	0.00034605057
24	0xb8b496da	-8.611167e-05
25	0x3a3b6e2a	0.00071498996
26	0x00000004	6e-45
27	0xb8b135a4	-8.450009e-05
28	0x00000000	0.0
29	0x3a3a3c1f	0.00071042957
30	0x3862759a	5.3992124e-05
31	0x3aa72d99	0.0012754678
32	0x00000000	0.0
33	0x399e99e3	0.00030250763
34	0xb9b62b7a	-0.00034746138
35	0xb95ea340	-0.00021232385
36	0x399f94bd	0.00030437662
37	0xb92f98c8	-0.00016746216
38	0xb8ab0f8a	-8.15681e-05
39	0x39da9c52	0.00041696668
40	0xb61bd590	-2.322111e-06
41	0x39d6372b	0.00040858364
42	0x3810b610	3.4501834e-05
43	0x3a5af7bb	0.0008352955
44	0x39f686e2	0.00047021272
45	0x39912e60	0.00027691107
46	0x3946e7be	0.00018969082
47	0x3961546e	0.00021489125
48	0x399ab35a	0.00029506796
49	0x3a42c79e	0.0007430258
50	0x3adaa124	0.0016680104
51	0xb99fcbfa	-0.00030478818
52	0xb99cbe2e	-0.00029896334
53	0x3a903bec	0.0011004186
54	0x3a9ad5d5	0.0011812994
55	0xba9338c4	-0.0011232127
56	0x39c7837e	0.00038054207
57	0xba47f012	-0.0007627021
58	0x389886ac	7.2730094e-05
59	0xb9c0be3b	-0.00036762826
60	0x3a8d05f6	0.0010759223
61	0xb9e84e7c	-0.00044308964
62	0xba117a80	-0.0005549565
63	0xba297f4e	-0.0006465808
64	0x3aaeb00c	0.0013327613
65	0xba17187e	-0.00057638425
66	0x38ccc836	9.76477e-05
67	0x3a949eb4	0.0011338801
68	0x80000004	-6e-45
69	0x3b0ea5f8	0.0021766406
70	0x3a85573a	0.001017309
71	0x399e93b6	0.00030246162
72	0xba9db7e7	-0.0012032957
73	0x3a00a96c	0.00049080583
74	0xb9030589	-0.00012495196
75	0xb80ab270	-3.3067947e-05
76	0x80000004	-6e-45
77	0xba0790cd	-0.00051714183
78	0x00000000	0.0
79	0x3ae64f58	0.0017571254
80	0x38fd602e	0.00012081895
81	0x3ae83254	0.0017715194
82	0x00000000	0.0
83	0xba4f456e	-0.0007906769
84	0xb99fd8c2	-0.0003048834
85	0x3a0e6fb8	0.00054335175
86	0x3a4c4461	0.00077921717
87	0xba58859b	-0.0008259655
88	0xb98270af	-0.00024879488
89	0xba4967dc	-0.0007683018
90	0x38ff02f2	0.00012159896
91	0x36d26a10	6.270835e-06
92	0x3a8bbc8e	0.0010661052
93	0xba1461de	-0.00056603353
94	0x3ac36351	0.0014906918
95	0x3a749ab4	0.0009330914
96	0x39f60d38	0.00046930625
97	0x39fa1ab0	0.000477036
98	0xba1f7793	-0.00060831866
99	0x39faa058	0.0004780318
100	0x00000004	6e-45
101	0x00000004	6e-45
102	0x00000004	6e-45
103	0x00000004	6e-45
104	0x00000004	6e-45
105	0x00000004	6e-45
106	0x00000004	6e-45
107	0x00000004	6e-45
108	0x00000004	6e-45
109	0x00000004	6e-45
110	0x00000004	6e-45
111	0x00000004	6e-45
112	0x00000004	6e-45
113	0x00000004	6e-45
114	0x00000004	6e-45
115	0x00000004	6e-45
116	0x00000004	6e-45
117	0x00000004	6e-45
118	0x00000000	0.0
119	0x00000004	6e-45
120	0x00000004	6e-45
121	0x00000004	6e-45
122	0x00000004	6e-45
123	0x00000000	0.0
124	0x00000000	0.0
125	0x00000004	6e-45
126	0x80000004	-6e-45
127	0x00000004	6e-45
128	0x00000000	0.0
129	0x00000004	6e-45
130	0x00000004	6e-45
131	0x00000004	6e-45
132	0x00000000	0.0
133	0x00000004	6e-45
134	0x00000004	6e-45
135	0x00000000	0.0
136	0x00000000	0.0
137	0x00000004	6e-45
138	0x00000004	6e-45
139	0x00000004	6e-45
140	0x00000000	0.0
141	0x00000004	6e-45
142	0x00000004	6e-45
143	0x00000004	6e-45
144	0x00000000	0.0
145	0x00000004	6e-45
146	0x00000000	0.0
147	0x00000004	6e-45
148	0x00000004	6e-45
149	0x00000004	6e-45
150	0x00000004	6e-45
151	0x00000004	6e-45
152	0x00000004	6e-45
153	0x00000000	0.0
154	0x00000004	6e-45
155	0x00000004	6e-45
156	0x00000000	0.0
157	0x00000004	6e-45
158	0x00000004	6e-45
159	0x00000004	6e-45
160	0x00000004	6e-45
161	0x00000004	6e-45
162	0x00000004	6e-45
163	0x00000004	6e-45
164	0x00000004	6e-45
165	0x00000004	6e-45
166	0x00000000	0.0
167	0x00000004	6e-45
168	0x00000000	0.0
169	0x00000004	6e-45
170	0x00000000	0.0
171	0x00000004	6e-45
172	0x00000004	6e-45
173	0x00000004	6e-45
174	0x00000004	6e-45
175	0x00000004	6e-45
176	0x00000000	0.0
177	0x00000004	6e-45
178	0x00000000	0.0
179	0x00000000	0.0
180	0x00000000	0.0
181	0x00000004	6e-45
182	0x00000000	0.0
183	0x00000004	6e-45
184	0x00000004	6e-45
185	0x00000000	0.0
186	0x00000000	0.0
187	0x00000000	0.0
188	0x00000004	6e-45
189	0x00000004	6e-45
190	0x00000000	0.0
191	0x00000004	6e-45
192	0x00000000	0.0
193	0x00000004	6e-45
194	0x00000000	0.0
195	0x00000000	0.0
196	0x00000000	0.0
197	0x00000004	6e-45
198	0x00000004	6e-45
199	0x00000004	6e-45
200	0x3a133266	0.0005615115
201	0x394c789f	0.00019499891
202	0x39e9901c	0.00044548593
203	0x391b81c4	0.00014830293
204	0x3aec33b2	0.0018020777
205	0x3af214e3	0.001846936
206	0x399c1b9c	0.0002977521
207	0xb90d545e	-0.00013478237
208	0x38adb9c0	8.2838815e-05
209	0xb8b94d6d	-8.835909e-05
210	0x3aa8108d	0.0012822315
211	0x3acc5a9a	0.0015590966
212	0x38b8fb60	8.820626e-05
213	0x39348678	0.00017216231
214	0x3a2e9db2	0.00066610717
215	0x3a907e73	0.0011024013
216	0x3912ed1e	0.00014011978
217	0x3a71745a	0.0009210758
218	0x80000004	-6e-45
219	0x3accfc9e	0.0015639251
220	0x3906b2fa	0.0001284591
221	0x39a2eff4	0.00031077827
222	0x3a06a2aa	0.0005135933
223	0x3a10a2ec	0.00055174413
224	0xb90287fa	-0.00012448421
225	0x3af36fe0	0.001857277
226	0x00000004	6e-45
227	0xb7843d50	-1.5764177e-05
228	0x00000000	0.0
229	0x3abf5bc7	0.0014599495
230	0xb6b62400	-5.4282136e-06
231	0x3b1d9e5c	0.0024050688
232	0x00000000	0.0
233	0x3a673ade	0.00088207226
234	0xba0867aa	-0.00052034354
235	0xba300e6a	-0.0006716015
236	0x3a024d60	0.0004970636
237	0x39b1cf63	0.00033914586
238	0x391e0ca2	0.0001507276
239	0x3a9dbc83	0.001203433
240	0x37789502	1.48166455e-05
241	0x3a78547c	0.00094730384
242	0xb97177ea	-0.00023028222
243	0x3b2345b7	0.002491338
244	0x39eb7886	0.0004491249
245	0x39d4e55b	0.00040606674
246	0x38d7fbea	0.000102989216
247	0x39cc6099	0.00038981883
248	0x3a60b8f1	0.00085724803
249	0x3abffea1	0.0014648029
250	0x00000004	6e-45
251	0x00000004	6e-45
252	0x00000004	6e-45
253	0x00000004	6e-45
254	0x00000004	6e-45
255	0x00000004	6e-45

exp_avg_sq f4 [30, 50]
0	0x36f9467f	7.428985e-06
1	0x36e3df0f	6.7910946e-06
2	0x36909b07	4.309582e-06
3	0x375d42fd	1.3188223e-05
4	0x37d9a4c3	2.5945139e-05
5	0x3820780a	3.8258768e-05
6	0x35b69ce3	1.3605717e-06
7	0x368ae563	4.1394246e-06
8	0x365a9de2	3.2576431e-06
9	0x35e2f8dd	1.6910741e-06
10	0x37caa44c	2.4156783e-05
11	0x37ecb55b	2.8217843e-05
12	0x3649432d	2.9990435e-06
13	0x373df61d	1.1322581e-05
14	0x3681d352	3.8691005e-06
15	0x36901155	4.293552e-06
16	0x33e365fa	1.0589061e-07
17	0x3746257d	1.1810448e-05
18	0x2a6548a8	2.0364494e-13
19	0x383900b8	4.4108107e-05
20	0x363bdabe	2.7992496e-06
21	0x36852920	3.9684965e-06
22	0x3743cc34	1.16704505e-05
23	0x3640951c	2.8697023e-06
24	0x3417f6e7	1.4152793e-07
25	0x37f20ead	2.8855482e-05
26	0x2048d1e7	1.701011e-19
27	0x3741ca20	1.1550757e-05
28	0x00000000	0.0
29	0x37d88ab8	2.5813802e-05
30	0x348bb111	2.60196e-07
31	0x38592c00	5.177781e-05
32	0x00000000	0.0
33	0x373d2f86	1.1276343e-05
34	0x3687ae8a	4.0436325e-06
35	0x36908ca5	4.3079076e-06
36	0x3695f009	4.46849e-06
37	0x36586147	3.224313e-06
38	0x36a35ad1	4.868351e-06
39	0x37825f18	1.554149e-05
40	0x347a78d6	2.3327024e-07
41	0x362e1166	2.5938148e-06
42	0x3687df4d	4.049309e-06
43	0x380fc855	3.428043e-05
44	0x368e8098	4.2469e-06
45	0x36bb7d7f	5.587644e-06
46	0x3562d7e6	8.4505734e-07
47	0x36b89d37	5.5019295e-06
48	0x370e675a	8.487923e-06
49	0x37e64f22	2.7454986e-05
50	0x37d93781	2.5894262e-05
51	0x37dacf98	2.6084293e-05
52	0x378f4306	1.7078139e-05
53	0x38039031	3.1367123e-05
54	0x383791eb	4.3766497e-05
55	0x3892b80b	6.996103e-05
56	0x36a07a52	4.7826115e-06
57	0x376f4e9d	1.4263814e-05
58	0x375207a4	1.2518754e-05
59	0x3706a569	8.025535e-06
60	0x387dadf4	6.0481907e-05
61	0x382df758	4.147677e-05
62	0x36ac43c8	5.13389e-06
63	0x37e010e5	2.6710748e-05
64	0x3799242c	1.8255865e-05
65	0x368f79be	4.2759048e-06
66	0x33bc7171	8.775067e-08
67	0x37eaa1e6	2.7970364e-05
68	0x2b659dbd	8.157605e-13
69	0x38ca9fc9	9.661873e-05
70	0x37133acf	8.775575e-06
71	0x370d2102	8.41194e-06
72	0x381fa129	3.8058646e-05
73	0x37179635	9.035274e-06
74	0x35399876	6.913973e-07
75	0x3894feb1	7.10463e-05
76	0x20a36508	2.768013e-19
77	0x38295928	4.0375773e-05
78	0x00000000	0.0
79	0x384de4c0	4.908885e-05
80	0x348f60be	2.6706215e-07
81	0x38bb01b4	8.917172e-05
82	0x00000000	0.0
83	0x38128ffa	3.49432e-05
84	0x3735d0ed	1.0837085e-05
85	0x372bd710	1.0242467e-05
86	0x3773e3da	1.45369795e-05
87	0x36ef447a	7.1307268e-06
88	0x37901153	1.7174205e-05
89	0x381a87fe	3.6843114e-05
90	0x35480219	7.450886e-07
91	0x366b4187	3.505587e-06
92	0x37323f42	1.0624355e-05
93	0x386339d4	5.4174874e-05
94	0x37794798	1.4858226e-05
95	0x374eef76	1.2334311e-05
96	0x3667cfe9	3.4542702e-06
97	0x37a86a2f	2.0076606e-05
98	0x374c989d	1.2194881e-05
99	0x388936ad	6.542853e-05
100	0x22c964fc	5.458808e-18
101	0x25af1a8b	3.0375647e-16
102	0x23db6089	2.3784912e-17
103	0x291b8c90	3.4538832e-14
104	0x2935062a	4.019542e-14
105	0x29d08f8b	9.261956e-14
106	0x2692adb5	1.0177868e-15
107	0x24012a8e	2.800846e-17
108	0x239b670d	1.6848777e-17
109	0x21918f9d	9.863596e-19
110	0x28bde0f5	2.1080775e-14
111	0x297b62a6	5.581876e-14
112	0x281c8e75	8.69063e-15
113	0x286d5b51	1.3175944e-14
114	0x22023c43	1.7650188e-18
115	0x27c4da59	5.463766e-15
116	0x2641cc18	6.7236925e-16
117	0x285ef49c	1.2376517e-14
118	0x00000000	0.0
119	0x29064652	2.981497e-14
120	0x26b376b5	1.2452796e-15
121	0x290725a6	3.0008676e-14
122	0x269717be	1.0484165e-15
123	0x00000000	0.0
124	0x00000000	0.0
125	0x2931fd0d	3.952138e-14
126	0x1ece94a6	2.1872578e-20
127	0x27a13fb2	4.4755535e-15
128	0x00000000	0.0
129	0x280f8335	7.966546e-15
130	0x27080fc6	1.8882342e-15
131	0x295be56e	4.8826767e-14
132	0x00000000	0.0
133	0x2888adbe	1.5174382e-14
134	0x26bd3c8c	1.3130921e-15
135	0x00000000	0.0
136	0x00000000	0.0
137	0x271657ba	2.0864238e-15
138	0x273ced1e	2.6218783e-15
139	0x29493dff	4.468474e-14
140	0x00000000	0.0
141	0x29334a6c	3.9810535e-14
142	0x2807f3d0	7.546874e-15
143	0x29be58b6	8.453084e-14
144	0x00000000	0.0
145	0x27f485e8	6.7868786e-15
146	0x00000000	0.0
147	0x28a32bf5	1.8115699e-14
148	0x291b99ef	3.455043e-14
149	0x291a0d01	3.4206148e-14
150	0x2549044f	1.7435431e-16
151	0x220ced4d	1.9099164e-18
152	0x26273e69	5.8024346e-16
153	0x00000000	0.0
154	0x264de4b3	7.143361e-16
155	0x266faee7	8.315682e-16
156	0x00000000	0.0
157	0x25d0c59a	3.6216148e-16
158	0x23eea4ca	2.5873803e-17
159	0x26422467	6.7356605e-16
160	0x271ea0ed	2.2014143e-15
161	0x23952c37	1.6173338e-17
162	0x2552d2a3	1.8285963e-16
163	0x27210294	2.2344636e-15
164	0x25e1bde2	3.9159948e-16
165	0x22a666a6	4.5103073e-18
166	0x00000000	0.0
167	0x2654566a	7.366939e-16
168	0x00000000	0.0
169	0x25582f58	1.8751054e-16
170	0x00000000	0.0
171	0x23f0b5a1	2.6097775e-17
172	0x25838de9	2.282104e-16
173	0x25266b93	1.4434652e-16
174	0x248d5fde	6.131141e-17
175	0x26d9e24b	1.5118737e-15
176	0x00000000	0.0
177	0x25c33259	3.3861225e-16
178	0x00000000	0.0
179	0x00000000	0.0
180	0x00000000	0.0
181	0x254a42c4	1.7543328e-16
182	0x00000000	0.0
183	0x25c8973b	3.4796947e-16
184	0x234f606e	1.1241912e-17
185	0x00000000	0.0
186	0x00000000	0.0
187	0x00000000	0.0
188	0x265b437d	7.607235e-16
189	0x270639c4	1.862755e-15
190	0x00000000	0.0
191	0x226a8799	3.1784698e-18
192	0x00000000	0.0
193	0x25b05bf8	3.0593454e-16
194	0x00000000	0.0
195	0x00000000	0.0
196	0x00000000	0.0
197	0x25819233	2.2477e-16
198	0x243c0f00	4.0778707e-17
199	0x272577cc	2.2963292e-15
200	0x37b0e0b7	2.1085476e-05
201	0x3797fbd3	1.8117868e-05
202	0x36f9cef0	7.444869e-06
203	0x382770c9	3.9920942e-05
204	0x38c6e067	9.483174e-05
205	0x3905eedf	0.00012772855
206	0x362f35d3	2.6108362e-06
207	0x374dbe92	1.2263323e-05
208	0x3714c5b5	8.86752e-06
209	0x360752a0	2.0164662e-06
210	0x38a73d85	7.9746394e-05
211	0x38d72474	0.00010258789
212	0x371a2654	9.188039e-06
213	0x380122ab	3.0788284e-05
214	0x3702da70	7.799463e-06
215	0x3784c10c	1.582552e-05
216	0x346e0a16	2.2169147e-07
217	0x382c41cd	4.1069277e-05
218	0x2abeebe5	3.3914465e-13
219	0x391d7ba2	0.00015018744
220	0x37012037	7.6965e-06
221	0x375855fa	1.2894621e-05
222	0x380eb715	3.4025947e-05
223	0x36fcd827	7.5353487e-06
224	0x344ed34e	1.9262117e-07
225	0x38c1ab71	9.2348906e-05
226	0x21d8c1bc	1.468801e-18
227	0x380dfba0	3.3851364e-05
228	0x00000000	0.0
229	0x38bb335b	8.9264206e-05
230	0x35433aee	7.2728915e-07
231	0x3941c273	0.00018478352
232	0x00000000	0.0
233	0x3805f9f3	3.1942454e-05
234	0x3767b023	1.3809683e-05
235	0x376cc9e2	1.4113701e-05
236	0x3724d7ee	9.825437e-06
237	0x3737af5b	1.0948478e-05
238	0x371aaed2	9.219819e-06
239	0x384946df	4.798814e-05
240	0x350b6315	5.192572e-07
241	0x37057356	7.9542715e-06
242	0x3719ae5a	9.160105e-06
243	0x39028384	0.0001244676
244	0x37472dd8	1.1871998e-05
245	0x37696a4c	1.3912631e-05
246	0x3600627b	1.913081e-06
247	0x374fb20c	1.2379616e-05
248	0x37f88091	2.9623772e-05
249	0x38b6f7a2	8.7245615e-05
250	0x22cf9163	5.6261397e-18
251	0x23fea49c	2.760845e-17
252	0x21b4a6b1	1.2241397e-18
253	0x2635eb56	6.311593e-16
254	0x2495604b	6.4781576e-17
255	0x230f1c6f	7.7580666e-18

exp_avg f4 [30]
0	0x3a93252a	0.0011226286
1	0x3a3fdcb5	0.00073189597
2	0x00000004	6e-45
3	0x00000004	6e-45
4	0x3b24057b	0.002502768
5	0x00000004	6e-45
6	0x00000004	6e-45
7	0x3b32dcc4	0.002729223
8	0x3a18bbe5	0.00058263383
9	0xb9a5954d	-0.0003158249
10	0x39f53768	0.00046771322
11	0xbb9306a3	-0.004486875
12	0xba982863	-0.0011608716
13	0x00000004	6e-45
14	0xbb157499	-0.0022805093
15	0x3b95c5ab	0.004570683
16	0x00000004	6e-45
17	0xbaa802fe	-0.0012818275
18	0xbba8f2a0	-0.0051558763
19	0x3a850594	0.0010148757
20	0x00000004	6e-45
21	0xbaee6bd4	-0.0018190094
22	0xba1f2d6e	-0.0006072138
23	0x3aa880c3	0.0012855757
24	0x3a3847a0	0.0007029716
25	0xbb1685f5	-0.0022968028
26	0x39f7eb80	0.00047286972
27	0x00000004	6e-45
28	0x3aedc3db	0.0018140035
29	0xb99a9b4d	-0.00029488877

exp_avg_sq f4 [30]
0	0x388c1e77	6.681395e-05
1	0x39499f03	0.0001922809
2	0x295cf4ab	4.906203e-14
3	0x26e8a9c3	1.6144248e-15
4	0x39662c28	0.00021950959
5	0x25e97e32	4.050457e-16
6	0x239d2b9b	1.7040442e-17
7	0x396d05e9	0.00022604283
8	0x3733f500	1.0726275e-05
9	0x3864b3c0	5.452684e-05
10	0x3a3568c6	0.00069202145
11	0x397faba4	0.00024382636
12	0x39aef299	0.00033368616
13	0x2a977c20	2.6909117e-13
14	0x3901e2ae	0.00012386843
15	0x39673ce8	0.00022052566
16	0x29218903	3.586802e-14
17	0x39068847	0.00012830003
18	0x39f74b16	0.00047167455
19	0x387ab2bd	5.9771108e-05
20	0x2a043001	1.174061e-13
21	0x39c46303	0.00037457803
22	0x39a31a4e	0.0003110938
23	0x3881fcfe	6.198323e-05
24	0x39a2b376	0.00031032757
25	0x3a4cbb3f	0.0007809884
26	0x392fa10e	0.00016749298
27	0x2e10e383	3.294388e-11
28	0x390c950e	0.00013406968
29	0x36e6d941	6.879826e-06
